Model: "model"
_________________________________________________________________
Layer (type)                 Output Shape              Param #
=================================================================
input_1 (InputLayer)         [(None, 200)]             0
_________________________________________________________________
embedding (Embedding)        (None, 200, 50)           3550
_________________________________________________________________
conv1d (Conv1D)              (None, 200, 128)          19328
_________________________________________________________________
max_pooling1d (MaxPooling1D) (None, 100, 128)          0
_________________________________________________________________
conv1d_1 (Conv1D)            (None, 100, 128)          65664
_________________________________________________________________
max_pooling1d_1 (MaxPooling1 (None, 50, 128)           0
_________________________________________________________________
conv1d_2 (Conv1D)            (None, 50, 128)           82048
_________________________________________________________________
max_pooling1d_2 (MaxPooling1 (None, 25, 128)           0
_________________________________________________________________
global_max_pooling1d (Global (None, 128)               0
_________________________________________________________________
dropout (Dropout)            (None, 128)               0
_________________________________________________________________
dense (Dense)                (None, 64)                8256
_________________________________________________________________
dropout_1 (Dropout)          (None, 64)                0
_________________________________________________________________
dense_1 (Dense)              (None, 2)                 130
=================================================================
Total params: 178,976
Trainable params: 178,976
Non-trainable params: 0
_________________________________________________________________

Epoch 1/30
365/365 [==============================] - 189s 517ms/step - loss: 0.2150 - accuracy: 0.9068 - val_loss: 0.1092 - val_accuracy: 0.9567
Epoch 2/30
365/365 [==============================] - 185s 506ms/step - loss: 0.1088 - accuracy: 0.9584 - val_loss: 0.0891 - val_accuracy: 0.9647
…
